model_lenet.pt (torch, 132009 bytes, 18 tensors)

model.0.weight f4 [6, 3, 5, 5]
0	0xbcedd4e7	-0.029032184
1	0xbd96afa9	-0.07357723
2	0xbd8044d6	-0.062631294
3	0x3d3eeb5a	0.046611167
4	0xbcdef5a0	-0.027216733
5	0xbcc59517	-0.024118943
6	0xbd44af6a	-0.04801885
7	0xbda521e1	-0.080631025
8	0x3a85eb0b	0.0010217143
9	0xbd4ed696	-0.050497614
10	0x3d381274	0.044939473
11	0xbdb19b6c	-0.086722225
12	0xbd970ac9	-0.07375104
13	0x3d40b2fa	0.047045685
14	0xbd20b445	-0.03923442
15	0xbd69c228	-0.057069927
16	0xbcb59071	-0.022163602
17	0xbd526712	-0.051367827
18	0x3d4c559e	0.04988634
19	0x3d9b2de4	0.07577112
20	0xbd27834d	-0.040896703
21	0xbd755301	-0.05989361
22	0x3d0fd956	0.035119377
23	0x3ce5ebba	0.028066505
24	0xbce46b2c	-0.027883135
25	0x3cede45b	0.029039552
26	0x3d602a38	0.054727763
27	0xb91f4b1f	-0.00015191406
28	0x3d627b83	0.05529357
29	0xbd049cd4	-0.032376125
30	0x3cd5bb28	0.02609022
31	0x3c18ba7e	0.009321807
32	0xbd50204c	-0.05081205
33	0xbd84e9cc	-0.06489906
34	0x3c46e708	0.012140043
35	0x3d70b1e6	0.058763407
36	0x3d1ac047	0.037781026
37	0x3d5635ed	0.05229752
38	0x3d0415b9	0.03224728
39	0x3d71f95e	0.059075706
40	0x3d3f5d9e	0.04672014
41	0xbca26e6e	-0.019828048
42	0x3d823d26	0.063593194
43	0xbd26e7c2	-0.040748365
44	0x3da997fa	0.0828094
45	0xbd2329c6	-0.03983476
46	0xbd10eb93	-0.03538091
47	0xbd3b62b3	-0.045748424
48	0xbd5c22e7	-0.053744223
49	0x3bbced30	0.0057655796
50	0xbceadff0	-0.028671235
51	0xbd8e91ff	-0.0696144
52	0x3d3e48dd	0.046456207
53	0x3d9532fc	0.07285115
54	0xbd4fe675	-0.05075689
55	0x3c61318e	0.013744725
56	0x3b8b1404	0.0042443294
57	0x3c34eb93	0.011042493
58	0x3c9a286f	0.018818108
59	0x3dbdc2d1	0.09265674
60	0x3c70e02f	0.014701887
61	0xbd5ed267	-0.054399874
62	0x3d123999	0.03569946
63	0xbd055a37	-0.03255674
64	0x3d2373ed	0.039905477
65	0x3cb39430	0.021921247
66	0x3dbe1357	0.092810325
67	0x3d8bae52	0.06820358
68	0x3d30e6c0	0.04318881
69	0x3d657a3f	0.056024786
70	0x3da523b5	0.08063451
71	0x3d80328d	0.06259642
72	0x3c12928b	0.008946071
73	0x3d03520c	0.032060668
74	0x3d8a6169	0.06756861
75	0xbd277803	-0.040885936
76	0x3d819c37	0.06328624
77	0xbc8df192	-0.017327104
78	0x3d8e225e	0.06940149
79	0x3c9c1499	0.01905279
80	0xbda08322	-0.078375116
81	0x3d0ca055	0.034332592
82	0x3a49a49d	0.0007692071
83	0x3cd50170	0.026001662
84	0x3bc4c07e	0.006004392
85	0xbc82fa12	-0.015988383
86	0x3d83ab89	0.06429202
87	0xbceee4ff	-0.029161928
88	0xbd76622f	-0.06015223
89	0x3c6f6e1f	0.014613657
90	0xbd2a2aac	-0.0415446
91	0x3ca20472	0.01977751
92	0xbad6db6f	-0.0016392301
93	0xbcb43b3e	-0.022000905
94	0xbdad8897	-0.08473318
95	0x3d27d55e	0.040974967
96	0x3d160324	0.03662409
97	0x3d418577	0.047246423
98	0xba72149a	-0.0009234637
99	0xbdad1d2d	-0.084528305
100	0x3c756515	0.014977713
101	0x3db1a9da	0.08674975
102	0xbd4414a1	-0.047871236
103	0x3dc11317	0.09427469
104	0x3d4a6d49	0.04942063
105	0xbd14c18d	-0.036317397
106	0xbd77fde0	-0.06054485
107	0x3c9d1df8	0.01917933
108	0x3bbc2c22	0.0057425657
109	0x3d60d320	0.054888844
110	0x3cbf0160	0.023316085
111	0x3d135248	0.03596714
112	0x3ccc808c	0.02496364
113	0x3d098cea	0.03358165
114	0xbd36e5f0	-0.04465288
115	0x3d0a4688	0.03375867
116	0xbc88a898	-0.016681954
117	0xbd11f1f7	-0.035631146
118	0xbd42881f	-0.047493096
119	0xbc1d49fe	-0.009600161
120	0xbcd23836	-0.02566157
121	0x3c713aef	0.0147235235
122	0x3c72458a	0.014787087
123	0xbd8e8e62	-0.06960751
124	0xbd7c1cfe	-0.061551087
125	0xbd4442f6	-0.04791542
126	0x3cb9f450	0.022699505
127	0xbc348282	-0.011017444
128	0xbd46ebe7	-0.048564818
129	0x3d2697cc	0.04067211
130	0x3d01a9fc	0.03165625
131	0x3d204484	0.03912784
132	0xbccf764f	-0.025324969
133	0xbd0ce2e1	-0.034396056
134	0x3c83cb63	0.016088193
135	0xbba51ceb	-0.0050388477
136	0xbd63d21c	-0.055620298
137	0xbd42dad7	-0.047571983
138	0xbd785384	-0.06062652
139	0x3c69ef0b	0.014278184
140	0x3d614a30	0.05500239
141	0xbd3ffbcb	-0.046870988
142	0x3d9004e8	0.07032186
143	0x3ce2cbb7	0.02768503
144	0x3c9b79cd	0.018978978
145	0x3d6ab934	0.05730553
146	0x3c1db60b	0.009625922
147	0xbd6f9407	-0.05849078
148	0x3c230c0f	0.009951605
149	0x3d7de43a	0.061985232
150	0xbd2c5c21	-0.04208005
151	0xbd2579be	-0.040399306
152	0x3d1f77f9	0.038932774
153	0xbd48eaa5	-0.0490519
154	0x3d4eeb8d	0.050517607
155	0xbc21efc9	-0.009883829
156	0x3d09208f	0.033478316
157	0xbc9597d8	-0.018260881
158	0xba7f7b0b	-0.0009745813
159	0xbd2a716e	-0.04161208
160	0x3c3a9b42	0.011389555
161	0x3d9d32cd	0.07675705
162	0x3d3c52fe	0.045977585
163	0x3c97891c	0.018497996
164	0x3bf68808	0.0075235404
165	0xbcebecc4	-0.028799422
166	0xbd5ce2a3	-0.053927075
167	0x3d1ba63b	0.038000327
168	0xbcebc024	-0.028778143
169	0x3db497f3	0.088180445
170	0x3d4069f6	0.046976052
171	0x3c0dfaf4	0.008665789
172	0x3ca42529	0.02003725
173	0x3d71bc2c	0.059017345
174	0xbccd3243	-0.02504838
175	0x3d96db52	0.07366051
176	0x3d812a33	0.06306877
177	0x3a1bd2b8	0.00059441803
178	0xbd037e04	-0.0321026
179	0x3cb6e63b	0.02232658
180	0x3dae941a	0.08524342
181	0x3dad2854	0.084549576
182	0xbc9cd8a8	-0.019146279
183	0x3db12f68	0.0865162
184	0x3daca947	0.084307246
185	0xbd3f612a	-0.046723522
186	0x3d116af9	0.035502408
187	0xbd072796	-0.032996736
188	0x3cde30d5	0.027122894
189	0x3b8ebfce	0.004356361
190	0x3c78ef23	0.015193733
191	0x3ba28a08	0.0049603023
192	0xbd8f81ec	-0.070072025
193	0xbce6e32b	-0.028184494
194	0xbc5ee085	-0.013603334
195	0x3bdc4b63	0.006722854
196	0x3d9c74fc	0.076395005
197	0x3b884760	0.004158899
198	0x3be45d23	0.0069691106
199	0x3baf931b	0.0053581125
200	0xbbe68e2b	-0.0070359907
201	0xbd01a813	-0.03165443
202	0x3d2912ed	0.041277815
203	0x3d687116	0.056748472
204	0x3d3956d6	0.04524883
205	0xbd8cf076	-0.06881802
206	0x3c48ed89	0.012263664
207	0xbb86276b	-0.0040940545
208	0xbd9772df	-0.07394957
209	0x3d2e348d	0.042530585
210	0x3ca47e69	0.020079808
211	0xbd766709	-0.060156856
212	0xbd3eb32b	-0.046557587
213	0xbc480423	-0.0122080175
214	0xbaf867a8	-0.001895179
215	0xbd238ac5	-0.039927263
216	0xbd5b437e	-0.053531162
217	0xbd6e72ad	-0.058214832
218	0x3d39cc41	0.045360807
219	0xbd41572e	-0.04720228
220	0xbab46833	-0.0013763964
221	0xbdaed309	-0.085363455
222	0xbb36724c	-0.0027839122
223	0x3ced342b	0.02895554
224	0xbd069082	-0.032852657
225	0x3c3b36eb	0.011426668
226	0xbd07e8af	-0.03318089
227	0xbd7f6ad9	-0.062357757
228	0xbdbbee2c	-0.09176287
229	0x3d569c0a	0.052394904
230	0x3c7e5932	0.0155241955
231	0xbc3a4534	-0.011369038
232	0xbd539ff4	-0.051666215
233	0x3c477ad1	0.012175278
234	0xbd574d73	-0.052564096
235	0x3cb25e29	0.021773415
236	0x3c36b44e	0.011151386
237	0xbdc1fa8d	-0.09471617
238	0xbd3a1f19	-0.045439813
239	0xbc5a8435	-0.013337185
240	0xbc311741	-0.010808767
241	0xbd6c5711	-0.05770022
242	0x3cfdedce	0.030997183
243	0x3d612bda	0.05497346
244	0x3d66d793	0.05635793
245	0x3d8b562e	0.06803547
246	0xbafce842	-0.0019295292
247	0xbc0db60e	-0.008649362
248	0x3d3b4554	0.045720413
249	0x3c8224b6	0.015886646
250	0x3da5860b	0.08082207
251	0xbd4eb91e	-0.05046951
252	0x3d72a54b	0.059239667
253	0xbbbd86ca	-0.0057838904
254	0x3c6d4706	0.014482265
255	0x3c88c9cf	0.016697792

model.0.bias f4 [6]
0	0x3d4f07f6	0.0505447
1	0x3c63a5a2	0.01389447
2	0xbd6f5529	-0.058430824
3	0x3d6e52c9	0.05818442
4	0x3d1b0760	0.03784883
5	0xbca3c3f1	-0.019990893

model.1.weight f4 [6]
0	0x3f30e216	0.6909498
1	0x3f2c35f6	0.6726984
2	0x3f2ea8cd	0.6822632
3	0x3f2bed7c	0.6715925
4	0x3f2eb511	0.68245035
5	0x3f2f3e43	0.6845438

model.1.bias f4 [6]
0	0x3bf8993a	0.0075866254
1	0xbb9fc88b	-0.0048762015
2	0xbbefb227	-0.0073149386
3	0x3ba776b7	0.0051105875
4	0x3b01d2d5	0.0019809504
5	0x3c83618f	0.01603773

model.1.running_mean f4 [6]
0	0x3d542b99	0.05179939
1	0x3c6b73af	0.014370843
2	0xbd67b0a5	-0.056564946
3	0x3d670d83	0.05640937
4	0x3d18b248	0.037279397
5	0xbca22eb4	-0.01979766

model.1.running_var f4 [6]
0	0x3a5e235a	0.0008473896
1	0x3960719a	0.00021404625
2	0x39e66f60	0.00043952
3	0x3a033905	0.000500575
4	0x39a06801	0.00030595067
5	0x39ae1745	0.00033205203

model.4.weight f4 [16, 6, 5, 5]
0	0xbd297057	-0.0413669
1	0xbb10aa52	-0.0022074175
2	0xbccf304e	-0.025291588
3	0xbcecf013	-0.02892307
4	0x3c8c59da	0.017132688
5	0xbd2a9761	-0.041648272
6	0xbd04ec1a	-0.032451726
7	0xbd2db6d4	-0.042410687
8	0xbcc5a756	-0.024127644
9	0xbced1792	-0.028941903
10	0xbd128ec1	-0.035780672
11	0xbcd7f56e	-0.026362147
12	0x3c7a456c	0.0152753405
13	0xbd1712b4	-0.03688307
14	0xbc1a42ce	-0.009415342
15	0xbce3ce97	-0.02780847
16	0x3cc50782	0.024051432
17	0x3c825c25	0.015913079
18	0x3b530704	0.0032200227
19	0xbcc6d0ac	-0.024269424
20	0xbd18b100	-0.037278175
21	0xbd506a9a	-0.050882913
22	0x3c13320f	0.008984103
23	0xbb69128c	-0.0035564033
24	0xba4fced5	-0.0007927244
25	0x3cac827b	0.021058312
26	0xbb8e23bd	-0.0043377564
27	0x3d8f8fa0	0.07009816
28	0x3c8fa2dc	0.017533712
29	0x3d86332f	0.06552731
30	0x3cd77a6f	0.026303498
31	0x3d73b8e5	0.0595025
32	0x3d04d723	0.032431733
33	0xbc079618	-0.008275531
34	0x3cc8e7b4	0.024524547
35	0xbbb5ad3a	-0.005544332
36	0xba5f7e2f	-0.0008525578
37	0xbc16bf73	-0.0092009185
38	0x3c3f9da9	0.011695304
39	0x3d19bbed	0.037532736
40	0x3c391abc	0.011297878
41	0xbd009057	-0.031387653
42	0xbc12696b	-0.008936266
43	0xbd594b51	-0.053050343
44	0x3d262b38	0.04056856
45	0x3ce2a4a3	0.027666396
46	0x3c1a4790	0.009416476
47	0xbcf509a6	-0.029911827
48	0x3d07e6de	0.033179156
49	0xbc373a96	-0.011183402
50	0x3d53da7f	0.051722046
51	0x3aed7de3	0.0018119182
52	0x3c084620	0.0083175
53	0xbd0b67b4	-0.034034446
54	0x3c0158c2	0.007894697
55	0xbd06a3c5	-0.032871027
56	0x3c8607ef	0.016361205
57	0xbd5fda05	-0.05465128
58	0xbcc9b31b	-0.024621537
59	0xbcf38eb8	-0.02973114
60	0xbd2558fe	-0.040368073
61	0x3d28d35f	0.041217204
62	0x3b57dd94	0.0032938467
63	0xbd7531d0	-0.059861958
64	0x3cac8dbb	0.021063676
65	0xbd459a8b	-0.048243087
66	0x3cdfd5c7	0.027323617
67	0x3cae834b	0.02130284
68	0x3cac220a	0.021012325
69	0xbb886ea9	-0.0041635823
70	0xbc42465e	-0.011857597
71	0xbd350faa	-0.04420439
72	0xbc88bd16	-0.016691726
73	0x3d05a931	0.032632057
74	0xbc73384d	-0.014844966
75	0xbcf58cd7	-0.029974384
76	0xbb909678	-0.0044124685
77	0xbd16bd8a	-0.036801852
78	0xbd4bad66	-0.049725913
79	0xbd2a3ef5	-0.041563947
80	0x3bbc11b2	0.005739414
81	0xbd7d8ce6	-0.06190195
82	0x3d0be2b4	0.034151748
83	0x3bd50312	0.00650061
84	0xbd44285b	-0.04789005
85	0x3bae0e38	0.0053117536
86	0x3c4d3578	0.012524955
87	0x3ccb8692	0.024844442
88	0x3c9addfe	0.018904682
89	0xbc020254	-0.007935125
90	0xbd84a129	-0.06476051
91	0x3d21ede9	0.03953353
92	0x3d153e83	0.03643657
93	0xbc1ea4e7	-0.0096828705
94	0x3bea80bf	0.007156461
95	0x3ce7bcf3	0.02828834
96	0x3ca52e5a	0.020163704
97	0x3cfd9687	0.030955566
98	0x3c9752af	0.018472044
99	0x3b7d3244	0.0038634697
100	0x3cd217f1	0.025646182
101	0x3cc6095a	0.024174381
102	0xbbdff179	-0.0068342057
103	0x3b9acdf0	0.0047242567
104	0xbcdd0ec8	-0.026984587
105	0xbd6a084f	-0.05713683
106	0x3c8c66d2	0.017138872
107	0x3cf0e530	0.02940616
108	0x3d1ece97	0.03877124
109	0x3d0aa75c	0.033851013
110	0x3b808f5f	0.003923341
111	0xba8454f0	-0.0010096114
112	0xbae0af48	-0.0017142082
113	0x3bd2a0cc	0.00642786
114	0xbcd0c994	-0.025486745
115	0x3c73f621	0.014890225
116	0x3be77e2a	0.0070646005
117	0x3d1afea1	0.03784049
118	0xbc97721e	-0.018487033
119	0xbb060177	-0.002044765
120	0xbcd76b41	-0.02629626
121	0x3d2aa754	0.041663483
122	0x3d0b5b24	0.034022465
123	0x3d057d7b	0.03259037
124	0xbd4ccfa9	-0.050002728
125	0x3d16f73c	0.036856875
126	0x3d697120	0.05699265
127	0x3d0f87c2	0.035041578
128	0x3a98e0da	0.0011663691
129	0xbcb0cafd	-0.021581167
130	0x3b0f5dd7	0.0021876001
131	0xbcf95e72	-0.030440543
132	0xbac214ed	-0.0014807262
133	0x3d3334bf	0.043751474
134	0x3c1296e7	0.008947111
135	0xbd2e824b	-0.042604726
136	0xbc19f581	-0.009396912
137	0x3d8c9779	0.068648286
138	0x3ce03501	0.027369024
139	0x3af01739	0.0018317468
140	0x3d051ef1	0.03250021
141	0x3d295e1d	0.04134952
142	0x3cb5f83c	0.022213094
143	0x3c030861	0.007997603
144	0x3d2f4b87	0.042796638
145	0x3cd02f28	0.02541311
146	0x3cafb995	0.021450797
147	0xbd026f9b	-0.031844717
148	0x3c2200d1	0.00988789
149	0x3d0ceaea	0.03440372
150	0x3c3a858c	0.011384379
151	0xbd4f380c	-0.05059056
152	0xbca6db74	-0.020368315
153	0xbd23c6a4	-0.03998436
154	0x3cb4cc0b	0.022069952
155	0x3d0f6099	0.035004232
156	0xbd495cf6	-0.04916092
157	0xbb9319d7	-0.0044891643
158	0x3d424503	0.047429096
159	0xbcc629ac	-0.024189793
160	0x3ceae384	0.028672941
161	0x3c5d153c	0.013493832
162	0x3d49f867	0.04930916
163	0x3d7895db	0.06068979
164	0x3d058b37	0.03260347
165	0xbd01225e	-0.031526916
166	0x3d44cf0e	0.048049025
167	0xbc4c4446	-0.0124674495
168	0x3c90a9f9	0.017659174
169	0x3bb9997a	0.005664048
170	0xbd00f076	-0.03147932
171	0xbcd2a715	-0.025714437
172	0xbd66f6cc	-0.056387708
173	0x3d585b64	0.052821532
174	0x3a72dc00	0.000926435
175	0xbd2cc22d	-0.042177368
176	0x3d568e1b	0.052381616
177	0xbc0e1d1d	-0.008673933
178	0x3cb66b58	0.022267982
179	0x3b8e6c1c	0.0043463837
180	0x3d024b0c	0.03180985
181	0x3c76bb5d	0.015059319
182	0xbd3d3391	-0.046191756
183	0xbc017164	-0.00790057
184	0x3d0a7738	0.033805102
185	0xbca565d9	-0.020190166
186	0xbb83ae58	-0.004018586
187	0xbc754216	-0.014969369
188	0x3c31bd37	0.010848335
189	0x3c28057d	0.010255215
190	0xbd54329b	-0.051806074
191	0x3d0589b3	0.032602023
192	0xbd0c7e3d	-0.034300078
193	0xbd506ea8	-0.05088678
194	0x3d3cbd90	0.04607922
195	0xb9207974	-0.00015304034
196	0x3d0d50e0	0.034500957
197	0x3caabe5a	0.02084272
198	0xbd49eaf9	-0.049296353
199	0x3d1f74f1	0.038929883
200	0xbccf7809	-0.025325792
201	0xbc57af47	-0.013164348
202	0x3cd11601	0.025523188
203	0xbd36e168	-0.044648558
204	0xbce18a72	-0.027531836
205	0xbcdb0191	-0.026734145
206	0x3cb767a8	0.022388294
207	0x3d45163f	0.04811692
208	0xbd58668e	-0.05283218
209	0x3d2994f0	0.041401803
210	0xbd1c10f4	-0.038102105
211	0xbd211363	-0.03932513
212	0x3d3ac6a9	0.045599613
213	0x3c002de4	0.007823441
214	0xbc8e6df8	-0.017386422
215	0xbd251eaf	-0.040312465
216	0xbce9edd8	-0.028555796
217	0xbcd457c6	-0.02592076
218	0x3d03e29c	0.032198533
219	0xbd0f1c81	-0.034939293
220	0x3c0a58e2	0.008444043
221	0xba851b90	-0.0010155309
222	0x3d137b8c	0.036006495
223	0xbc5a2da1	-0.013316543
224	0x3d050de0	0.032483935
225	0x3c2be86c	0.010492425
226	0xbcb55f61	-0.022140207
227	0xbcd223ad	-0.025651777
228	0x3d6ff4e8	0.05858317
229	0x3d1b44ec	0.037907526
230	0xbca3067a	-0.01990055
231	0x3cbfe425	0.023424217
232	0x3d381613	0.044942927
233	0x3cc94806	0.024570476
234	0xbc1ef842	-0.009702744
235	0x3d58d02c	0.052932903
236	0x3d19777d	0.03746747
237	0xbd380163	-0.044923197
238	0xbce91d19	-0.028456258
239	0xbd0bd889	-0.03414205
240	0xbd0fc847	-0.03510311
241	0xbd2ed9e3	-0.04268826
242	0xbcd6f37c	-0.02623915
243	0xbb098bb7	-0.0020987818
244	0xbcb6f4c5	-0.022333512
245	0x3d674ac9	0.056467805
246	0x3c6e793a	0.01455527
247	0xbcfce8e8	-0.030872777
248	0xbd4416d7	-0.047873344
249	0x3bc4e1ce	0.0060083633
250	0x3b86e71c	0.004116906
251	0x3cc0a402	0.023515705
252	0xbcf23bc5	-0.029569516
253	0x3cc7822a	0.02435406
254	0xbd5c53cb	-0.05379085
255	0xbc86ce39	-0.016455757

model.4.bias f4 [16]
0	0x3b473eb9	0.0030402376
1	0x3d3aba7a	0.045587994
2	0x3ba6528c	0.0050757583
3	0xbd0eb533	-0.034840774
4	0xbcb0dc53	-0.021589434
5	0x3bf4bea9	0.0074690175
6	0x3bc4388e	0.005988187
7	0x3c647203	0.013943198
8	0xbc90aa9c	-0.017659478
9	0xbd0a7453	-0.03380234
10	0xbc7c0c1e	-0.015383748
11	0x3c1df625	0.009641205
12	0x3d54d030	0.051956356
13	0x3ca53f54	0.020171799
14	0xbc9704a5	-0.018434832
15	0x3d307817	0.043083277

model.5.weight f4 [16]
0	0x3f33da46	0.70254934
1	0x3f31def9	0.69480854
2	0x3f34696c	0.7047336
3	0x3f31ccf1	0.6945334
4	0x3f2e6019	0.68115383
5	0x3f2caa17	0.67447037
6	0x3f361822	0.71130574
7	0x3f349089	0.70533043
8	0x3f2d57fd	0.67712384
9	0x3f2ed750	0.6829729
10	0x3f2eb337	0.6824221
11	0x3f2f433b	0.6846196
12	0x3f31a5d4	0.6939366
13	0x3f2fd75f	0.68688005
14	0x3f3599ee	0.70938003
15	0x3f31ef8e	0.69506156

model.5.bias f4 [16]
0	0x3bcb99e2	0.0062134126
1	0xbb838b66	-0.0040144203
2	0x3ba8569f	0.005137279
3	0x3b9bc12d	0.004753253
4	0xbb4fe3e0	-0.0031721517
5	0xbc0fc8b1	-0.008775876
6	0x3b28c37b	0.002575128
7	0xbb430ca5	-0.0029762175
8	0xbc872f74	-0.01650212
9	0x39c73b9e	0.00038000656
10	0xbb425d77	-0.002965776
11	0xbbc17338	-0.0059036277
12	0x3bb7971c	0.0056027304
13	0xbba0540b	-0.004892831
14	0x3be617b4	0.0070218686
15	0x3b42d822	0.0029730876

model.5.running_mean f4 [16]
0	0x3cb0430c	0.021516345
1	0x3dc25497	0.094887905
2	0x3ce8e8fe	0.028431412
3	0xbd857162	-0.06515767
4	0xbc4860c4	-0.012230102
5	0xbdb904f5	-0.090341486
6	0xbd0c1b3c	-0.03420566
7	0x3c25d8e3	0.010122511
8	0xbdc03aa3	-0.09386184
9	0xbdbaee56	-0.0912749
10	0xbc270f2e	-0.01019649
11	0x3d2585db	0.040410858
12	0x3d201d26	0.039090298
13	0xbcb845e1	-0.022494258
14	0x3d10af1d	0.03532325
15	0xbccc9835	-0.024974922

model.5.running_var f4 [16]
0	0x3d833edd	0.064084746
1	0x3d1682cc	0.03674583
2	0x3d09a7d5	0.033607323
3	0x3d24f6be	0.040274374
4	0x3ce5f93b	0.028072944
5	0x3d7666d0	0.060156643
6	0x3d20221b	0.039095026
7	0x3ca592b8	0.020211563
8	0x3d08a551	0.033360783
9	0x3d16afde	0.036788814
10	0x3d4f77aa	0.05065123
11	0x3cc72f95	0.024314681
12	0x3d57bb9c	0.052669153
13	0x3cf0155d	0.029307062
14	0x3cd8d8e1	0.026470603
15	0x3d62d7e0	0.055381656

model.9.weight f4 [120, 144]
0	0x3d16ed80	0.03684759
1	0x3d4a29f1	0.049356405
2	0xbd5ab90c	-0.05339913
3	0xbcbe10e8	-0.02320142
4	0xbd4a33cc	-0.049365804
5	0x3ca6b407	0.020349516
6	0x3d489d9c	0.048978433
7	0x3d2e3755	0.042533237
8	0xbd2849f3	-0.04108615
9	0x3c6affd7	0.014343224
10	0xbab107d3	-0.001350636
11	0xbd2834f5	-0.04106613
12	0xbd63220f	-0.055452403
13	0xbd57865c	-0.05261837
14	0x3d56c151	0.052430455
15	0xbcc1572f	-0.023601143
16	0xbd118969	-0.035531435
17	0xbc752326	-0.014961993
18	0x3d59346c	0.05302851
19	0xbc8cf829	-0.017208176
20	0xbb574668	-0.0032848362
21	0x3d2f7a78	0.042841405
22	0x3cfc043b	0.030763736
23	0xbd1dcdf5	-0.038526494
24	0x3d22c5b6	0.039739333
25	0x3d2a2919	0.0415431
26	0x3d34bea0	0.044127107
27	0x3c922225	0.017838547
28	0x3c9dad04	0.01924754
29	0xbd087bcd	-0.03332119
30	0xbca5d4da	-0.020243097
31	0x3cb96fa1	0.022636237
32	0x3cfbe637	0.030749423
33	0xbd09816f	-0.033570703
34	0xbd2c2c4f	-0.042034443
35	0x3d5636e5	0.052298445
36	0x3d30133b	0.04298709
37	0xbc2bf149	-0.010494539
38	0xbd66fae3	-0.056391608
39	0xbcbf9f65	-0.023391435
40	0x3d550a35	0.052011687
41	0xbd0e26de	-0.034705035
42	0xbd5c0bd2	-0.05372221
43	0xbccb11db	-0.024788788
44	0xbc3ec508	-0.011643656
45	0x3cd45544	0.025919564
46	0xbc8af1c1	-0.01696098
47	0x3d48e67f	0.049047943
48	0xbd132d3a	-0.035931803
49	0x3cf44415	0.02981762
50	0x3d6141b3	0.054994296
51	0x3d4facff	0.05070209
52	0x3ad7e964	0.0016472754
53	0xbd64074d	-0.055671025
54	0xbce12235	-0.027482131
55	0xbcc05606	-0.02347852
56	0xbd465042	-0.048416384
57	0xbd3c3fcd	-0.045959283
58	0xbcccb409	-0.024988191
59	0x3d5c85e6	0.053838633
60	0xbd5436ba	-0.051810004
61	0x3cd14e93	0.025550162
62	0xbb31d2c5	-0.0027133685
63	0xbd5eccb5	-0.054394443
64	0xbc76fa5d	-0.01507434
65	0xbbd79a30	-0.00657966
66	0xbc078465	-0.008271311
67	0xb774c240	-1.4588761e-05
68	0x3d148bda	0.036266185
69	0xbc56f75e	-0.0131205
70	0xbd2d4126	-0.04229846
71	0xbd4f43d6	-0.050601803
72	0x3cf1b6dd	0.029506141
73	0x3cd0da52	0.025494728
74	0xbce0b967	-0.027432157
75	0x3d25f1c4	0.04051377
76	0x3d04bd0d	0.032406855
77	0x3c9ea97c	0.019367926
78	0xbcffe579	-0.03123735
79	0x3d3359f6	0.043786965
80	0x3cb053d4	0.021524347
81	0xbce0acf5	-0.027426222
82	0xbd2be90d	-0.0419703
83	0xbbf58121	-0.0074922
84	0xbd368abd	-0.044565905
85	0xbd51bfad	-0.051208187
86	0x3c8dd62a	0.017314035
87	0x3ced36a3	0.028956717
88	0x3d38462c	0.044988796
89	0x3c1eace5	0.009684776
90	0xbcd0c00b	-0.025482198
91	0xbd4075ad	-0.046987224
92	0x39bc74ac	0.00035945082
93	0x3d536f8d	0.051620055
94	0x3c45a845	0.012064044
95	0xbd5cf968	-0.05394879
96	0xbd4c1f5f	-0.049834605
97	0x3bfe6925	0.007763999
98	0x3c06b114	0.00822093
99	0x3c10cd0a	0.008837948
100	0xbd675e81	-0.05648661
101	0x3d2f21b2	0.042756744
102	0x3c0b8154	0.008514721
103	0xbd52c980	-0.051461697
104	0xbd5b2569	-0.053502474
105	0xbc904f17	-0.017615838
106	0x3cb9c336	0.022676092
107	0xbcef32e5	-0.029199073
108	0x3d514906	0.05109503
109	0xbd4c83ef	-0.04993051
110	0xbd456871	-0.048195306
111	0xbd1b61aa	-0.037934937
112	0xbd2f6ced	-0.04282849
113	0x3d240766	0.04004612
114	0x3d55369b	0.05205403
115	0xbd6f0698	-0.058355898
116	0x3b96782b	0.004591962
117	0x3d337b54	0.043818787
118	0xbbedf099	-0.0072613475
119	0xbd5c6c0d	-0.053813983
120	0x3b7fcb89	0.0039031229
121	0xbd0082cc	-0.031374738
122	0x3cd33590	0.025782377
123	0xbcb87f09	-0.022521513
124	0x3c8b3659	0.016993688
125	0xbd6a2503	-0.057164203
126	0x3bf2ecd1	0.0074134846
127	0x3bb9b1ff	0.0056669707
128	0x3ab1be04	0.0013560657
129	0x3d08978c	0.03334765
130	0xbd3bfa78	-0.045893162
131	0x3ccb42f8	0.024812207
132	0x3d06f647	0.032949712
133	0x3d21597d	0.039391983
134	0xbd6468f3	-0.05576415
135	0xbd3aab0f	-0.04557329
136	0x3cc4a680	0.024005175
137	0x3d5b83e9	0.053592596
138	0x3ccce9ac	0.025013767
139	0xbbf30ee0	-0.0074175447
140	0x3cbd5142	0.023110036
141	0xbd594393	-0.05304296
142	0x3c257484	0.01009858
143	0xbceb827b	-0.028748741
144	0x3d399abe	0.04531359
145	0x3bf81e33	0.0075719594
146	0x3ce0d231	0.027443977
147	0x3d0661be	0.032808058
148	0xbca6cdcb	-0.020361802
149	0x3cb6c28e	0.022309568
150	0xbd616465	-0.055027384
151	0x3ca849cb	0.020543
152	0x3b236ea8	0.0024937782
153	0xbd306542	-0.043065317
154	0x3d4bf5db	0.049795013
155	0x3d08254b	0.03323869
156	0x3d2b9bcf	0.041896638
157	0x3d1b45b1	0.03790826
158	0xbd285dbd	-0.04110502
159	0x3c8083be	0.01568782
160	0xbc2269a5	-0.009912883
161	0x3bff0cf5	0.007783527
162	0x3b8a1c5a	0.0042148056
163	0xbca75ba2	-0.020429436
164	0xbd463597	-0.04839095
165	0x3c8280da	0.015930582
166	0xbd351cd7	-0.044216957
167	0x3bd00a77	0.0063489038
168	0xbcfc1688	-0.030772462
169	0xbc276668	-0.010217287
170	0xbc88308e	-0.016624715
171	0x3c97929b	0.018502524
172	0x3cc542b1	0.024079653
173	0x3d1189be	0.03553175
174	0x3bc70148	0.006073151
175	0xbd2abf6e	-0.041686468
176	0x3c12c259	0.008957469
177	0xbd16a9a1	-0.036782864
178	0xbcde209e	-0.027115162
179	0xbd5d7e70	-0.05407566
180	0x3c667550	0.014066055
181	0x3b9f851a	0.004868162
182	0x3cb7d6a8	0.022441223
183	0xbd35dde1	-0.044401053
184	0xbc842ea5	-0.016135523
185	0x3d18e8cf	0.0373314
186	0x3d527a4b	0.05138616
187	0xbbcd8f73	-0.006273204
188	0xbd454883	-0.048164856
189	0xba84dcac	-0.0010136566
190	0xbcc26701	-0.023730757
191	0xbcc196ef	-0.023631541
192	0x3d42e7f2	0.04758448
193	0xbd4ac0c6	-0.04950025
194	0xbd6fa235	-0.058504302
195	0xbd1b8bb0	-0.037975013
196	0xbd1f1d64	-0.03884639
197	0x3d4dcb49	0.050242696
198	0xbc3950f4	-0.011310805
199	0x3c97b2a7	0.018517805
200	0xbd5e2d93	-0.05424268
201	0xbd78cfc3	-0.060745012
202	0x3a3b44e2	0.0007143748
203	0xbca46d31	-0.020071598
204	0xbcd1fcd3	-0.025633251
205	0xbd76cd7e	-0.060254566
206	0x3d0b1f42	0.033965357
207	0x3d34b2b9	0.044115756
208	0xbcd96dfe	-0.026541706
209	0x3d0150ab	0.03157107
210	0x3d31d756	0.04341825
211	0xbb957b3b	-0.0045618094
212	0x3d05a278	0.032625645
213	0xbb67f618	-0.0035394486
214	0x3c5398b7	0.012914828
215	0xbd04500a	-0.032302894
216	0x3cee8165	0.029114434
217	0x3d2a6eb3	0.041609477
218	0x3bb9fbc1	0.0056757634
219	0xbd486af3	-0.04893012
220	0x3c11df0b	0.008903275
221	0x3d580122	0.052735455
222	0x3d0e461a	0.034734823
223	0x3c302ad7	0.010752401
224	0x3d436d55	0.04771169
225	0x3d31c414	0.043399885
226	0x3d374241	0.04474092
227	0x3ca25360	0.019815147
228	0xbd1a6539	-0.03769419
229	0x3cd5918a	0.026070375
230	0xbd2a1dd6	-0.04153236
231	0xbc4a3d9e	-0.012343792
232	0xbcb19feb	-0.0216827
233	0x3c41f767	0.0118387705
234	0xbd413cf7	-0.04717728
235	0x3bea8423	0.007156865
236	0xbb506274	-0.0031796964
237	0x3ce30e5c	0.027716808
238	0xbd493244	-0.049120203
239	0x3d33ced3	0.043898415
240	0x3ca751f6	0.020424824
241	0x3cf9ad5e	0.030478176
242	0xbc8a6ae4	-0.016896673
243	0xbc92008b	-0.017822525
244	0xbc89ff95	-0.016845504
245	0xbd7aea9a	-0.06125889
246	0xbd4a7a92	-0.0494333
247	0x3d21a5a1	0.039464597
248	0x3c7f9ee5	0.015601848
249	0xbcd0df0a	-0.025496978
250	0xbd152d2d	-0.036420036
251	0x3d11893d	0.03553127
252	0xbc565744	-0.013082329
253	0x3beef3e9	0.00729226
254	0xbc701ec5	-0.0146557735
255	0x3d4bc8ea	0.049752153

model.9.bias f4 [120]
0	0xbd05f9a5	-0.032708783
1	0x3ca7c2c4	0.020478614
2	0xbd30de6c	-0.043180868
3	0xbd1c9c39	-0.038234923
4	0x3c822eba	0.015891422
5	0xbd3e390d	-0.046441127
6	0x3d2ac7d5	0.04169448
7	0x3cc4a9c3	0.02400673
8	0xbcdb97e2	-0.026805822
9	0xbd0761f1	-0.03305239
10	0xbd464b13	-0.04841144
11	0xbc33c3e2	-0.010971995
12	0xbd46b1cc	-0.048509404
13	0x3c980fc3	0.018562203
14	0x3c5ca565	0.0134671675
15	0xbcb31976	-0.021862727
16	0x3cf278cf	0.029598622
17	0xbd1302fc	-0.035891518
18	0x3c127ae1	0.008940429
19	0xbd6ad202	-0.057329185
20	0x3c96f1d3	0.018425858
21	0x398055cf	0.00024477995
22	0x3cf63a5f	0.03005713
23	0x3cba1531	0.022715183
24	0x3c41b73e	0.0118234735
25	0xbb7fb22d	-0.0039016113
26	0xbb2fb50b	-0.002681079
27	0xbc1da0dc	-0.009620871
28	0x3c1226a8	0.008920349
29	0x3d602100	0.05471897
30	0x3c86de69	0.016463475
31	0x3d0f9e41	0.035063032
32	0x3c5f4df4	0.013629425
33	0x3d2a0b3e	0.041514628
34	0x3a14edaf	0.00056811696
35	0xbd14f5c1	-0.03636718
36	0x3c9eb082	0.019371275
37	0xbc5a3d8e	-0.01332034
38	0x3d096093	0.033539366
39	0x3cbda4c2	0.023149852
40	0xbd2c68e2	-0.04209221
41	0x3d465717	0.0484229
42	0x3c87687c	0.016529314
43	0x3d1f7fcb	0.038940232
44	0x3d0c45f6	0.034246407
45	0x3d134d59	0.035962436
46	0x3c2108b3	0.009828734
47	0xbc84acb1	-0.016195627
48	0xbd518d8a	-0.051160373
49	0xbd525cd9	-0.051358078
50	0xbd18cdd1	-0.037305657
51	0x3cfa14e5	0.030527541
52	0xbd368ba1	-0.044566754
53	0x3afc0da0	0.0019230135
54	0xbd70b7d4	-0.058769062
55	0x3d3d95df	0.046285506
56	0xbb81a741	-0.003956706
57	0x3d4e4d40	0.05036664
58	0xbc2e0620	-0.0106215775
59	0xbd5c6acf	-0.053812798
60	0xbc44651a	-0.011986995
61	0xbd62a209	-0.05533031
62	0xbbb2ecfb	-0.005460379
63	0xbab0b29c	-0.0013480964
64	0x3c8349a3	0.016026324
65	0xbd473a7a	-0.048639752
66	0xbcf19e1f	-0.029494343
67	0x3c94526e	0.018105712
68	0x3d02e695	0.03195818
69	0x3cf39220	0.029732764
70	0xbd1a177e	-0.03762006
71	0xbd54bf28	-0.051940113
72	0x3d0df726	0.034659527
73	0xbc3c8cc4	-0.0115081705
74	0xbd66aa79	-0.05631492
75	0xbc24e7b9	-0.010065013
76	0x3cdd05e0	0.02698034
77	0x3d3e69b9	0.046487544
78	0x3b8a2edd	0.0042170123
79	0x3d0f544e	0.03499251
80	0x38d73ad0	0.000102629536
81	0x3d0fe233	0.03512783
82	0x3d1b875b	0.037970882
83	0xbc03c8e9	-0.008043506
84	0xbc85cec7	-0.01633395
85	0x3bfdfbf0	0.0077509806
86	0x3ba0624f	0.004894532
87	0x3d3a6d47	0.04551437
88	0x3d241f96	0.040069185
89	0x3d08410c	0.03326516
90	0x3d2c414c	0.04205446
91	0x3c8d82f7	0.017274363
92	0x3d5462e5	0.051852126
93	0x3b90ff9f	0.0044250037
94	0xbc27d271	-0.010243044
95	0x3d046e48	0.032331735
96	0xbc90fe0d	-0.017699266
97	0xbd304b9f	-0.043040868
98	0xbd441eeb	-0.04788105
99	0x3af8f247	0.0018993103
100	0xbb5ea8f4	-0.0033975216
101	0x3d21d54e	0.039510064
102	0xbd4c6c0e	-0.049907736
103	0xbd153151	-0.036423985
104	0x3d2ee3d0	0.042697728
105	0x3a34f181	0.0006902442
106	0xbc206ef2	-0.009792076
107	0x3d4ed463	0.050495517
108	0xbcda7617	-0.026667638
109	0x3ae6ecc7	0.0017618173
110	0x3d2752c6	0.040850423
111	0xbd612fe7	-0.054977324
112	0xbd4f0a3c	-0.05054687
113	0x3ca2949f	0.019846259
114	0xbd3fede3	-0.046857726
115	0xbcc60172	-0.024170611
116	0xbb3aa610	-0.0028480329
117	0x3d3e8ec6	0.046522878
118	0x3cc1ee4a	0.023673195
119	0x3cb305af	0.021853296

model.12.weight f4 [84, 120]
0	0xbc00f986	-0.007871991
1	0xba993f0a	-0.0011691761
2	0x3b5ae51c	0.003340072
3	0xbd14c976	-0.03632494
4	0x3d110007	0.035400417
5	0x3ca65572	0.020304415
6	0xbb6c7308	-0.0036079306
7	0x3d11fed7	0.035643425
8	0x3d003aa8	0.03130594
9	0xbd5d3546	-0.054005884
10	0xbbff4fef	-0.0077915112
11	0x3ced8446	0.028993737
12	0x3d0412b4	0.0322444
13	0xbd6ca4d1	-0.05777437
14	0xbd5ce6f4	-0.05393119
15	0xbd38f3dd	-0.04515444
16	0xbc3b703b	-0.011440332
17	0xbc66efb5	-0.014095237
18	0xbd1ae8f1	-0.037819806
19	0x3c04f692	0.008115428
20	0x3d4bbdb1	0.04974145
21	0x3d203c64	0.039120093
22	0x3d39953c	0.045308337
23	0xbc0d30ae	-0.008617563
24	0x3cf4b58a	0.02987172
25	0x3cd835ed	0.026392901
26	0xbd5b4f22	-0.053542264
27	0x3d7d802f	0.061889824
28	0x3d750cc5	0.05982663
29	0xbbab4888	-0.0052271523
30	0xbd30577a	-0.043052174
31	0xba91ed66	-0.0011133372
32	0x3d27cfd9	0.040969703
33	0xbd2b2a05	-0.04178812
34	0xbd318829	-0.043342743
35	0x3cc0843c	0.023500554
36	0xbb0beac9	-0.002134966
37	0x3d02d6e8	0.03194323
38	0x3d11374e	0.035453133
39	0x3cb28422	0.021791521
40	0xbd0ae206	-0.03390696
41	0xbcf67022	-0.030082766
42	0x3d304039	0.043029997
43	0xbd1a781d	-0.037712205
44	0x3cef9e4c	0.029250287
45	0x3d3548dc	0.044258937
46	0xbd0a685b	-0.033790927
47	0xbd43dd96	-0.047818743
48	0xbc6ec37c	-0.014572974
49	0xbb23f833	-0.0025019764
50	0x3c832791	0.016010078
51	0xbd325d38	-0.04354593
52	0xbd0219a6	-0.03176274
53	0x3d5af49a	0.053455926
54	0x3d34bd72	0.04412598
55	0x3d1b9a75	0.0379891
56	0xbd5c7201	-0.05381966
57	0x3cf96b70	0.030446738
58	0x3c928b47	0.017888678
59	0xbcc0421b	-0.023469022
60	0xbd1866fe	-0.037207596
61	0xbd175452	-0.03694565
62	0x3d4612bb	0.048357707
63	0xbba33014	-0.0049800966
64	0x3cd04229	0.025422173
65	0x3b74febc	0.0037383279
66	0xbd837447	-0.064186625
67	0xbcdc92df	-0.026925502
68	0xbd29ec35	-0.04148503
69	0x3c1f9e47	0.009742326
70	0x3d297e5c	0.04138027
71	0x3d6c1bcc	0.057643697
72	0x3d5ce64c	0.053930566
73	0xbd131231	-0.03590602
74	0x3bbcadd0	0.0057580248
75	0x3d3a392b	0.045464676
76	0xbd7176d6	-0.05895122
77	0xbc529ea5	-0.012855207
78	0x3cd8cb00	0.026463985
79	0x3d709830	0.058738887
80	0xbc67da4f	-0.01415117
81	0x3d0981bd	0.033570994
82	0x3c795fe8	0.01522062
83	0xbd772532	-0.060338207
84	0xbd598ebb	-0.053114634
85	0xbd49d5d7	-0.0492762
86	0x3d3ddcdd	0.04635321
87	0x3d01cc8c	0.03168921
88	0x3d202f60	0.03910768
89	0xbd5ba91e	-0.05362808
90	0xbca5a520	-0.02022034
91	0x3d4e69a2	0.050393708
92	0xbce813f4	-0.028329827
93	0x3d1f6642	0.03891588
94	0x3cca3b9a	0.024686623
95	0x3d16794e	0.03673678
96	0xbd2352fb	-0.03987406
97	0x3ba0d360	0.0049080104
98	0xbcf68c03	-0.03009606
99	0xbd579138	-0.052628726
100	0x3cd3edb5	0.025870183
101	0xbc085492	-0.008320944
102	0x3ce6b860	0.028164089
103	0xbd6346fa	-0.05548761
104	0x3d6c2120	0.057648778
105	0x3c21c821	0.009874375
106	0xbd0b81c3	-0.034059297
107	0x3d206e77	0.039167847
108	0xbd699dd6	-0.05703529
109	0x3d1d34ab	0.038380306
110	0x3d2ff269	0.04295579
111	0x3c832290	0.016007692
112	0xbba40126	-0.0050050197
113	0x39e9791f	0.00044531465
114	0x3d761c43	0.060085546
115	0x3c0d01b7	0.008606366
116	0x3c70e094	0.014701981
117	0x3d4823b5	0.048862178
118	0x3d054b50	0.032542527
119	0xbcd69b87	-0.026197208
120	0xbbedaf03	-0.007253529
121	0x3c1d2811	0.009592072
122	0xbc11fc98	-0.008910321
123	0xbc9397bf	-0.018016694
124	0x3cff856c	0.03119155
125	0xbba15add	-0.004924162
126	0x3d38d6a0	0.045126557
127	0x3cf499df	0.029858528
128	0xbd7f83f8	-0.062381715
129	0xbc8e0e2a	-0.017340738
130	0xbd5d3187	-0.05400231
131	0x3cc36238	0.023850545
132	0xbd6e7fb6	-0.058227263
133	0xbb54d352	-0.003247459
134	0xbd551e42	-0.05203081
135	0x3d191282	0.037371166
136	0x3bc6030d	0.006042844
137	0xbceb049f	-0.028688727
138	0xbcc80b9c	-0.024419598
139	0xbc9226e5	-0.017840812
140	0xbc4996ec	-0.012304049
141	0x3d317a2c	0.043329403
142	0x3b513340	0.0031921417
143	0x3d68e34f	0.056857403
144	0xbcf2af34	-0.029624559
145	0xbd28ebd7	-0.04124054
146	0x3d67edd3	0.05662329
147	0xbd1b125a	-0.0378593
148	0xbd0f3172	-0.034959264
149	0x3d2cb004	0.04216005
150	0x3c498359	0.012299382
151	0xbd362c8b	-0.044476073
152	0xbcf316b6	-0.029673915
153	0xbc9cfcff	-0.019163607
154	0xbd3f66f6	-0.04672905
155	0x3d63e198	0.055635065
156	0x3d0c7a85	0.03429653
157	0x3c097b95	0.008391281
158	0xbd51b2d2	-0.051195927
159	0xbd3f7c8b	-0.046749633
160	0x3c8cfd0e	0.01721051
161	0xbb8c73d8	-0.0042862706
162	0x3d1d0314	0.038333014
163	0x3d4d56ab	0.05013148
164	0xbbc58090	-0.0060272887
165	0xbd37a208	-0.04483226
166	0xb9a7d023	-0.00032007796
167	0xbd2bbaf1	-0.041926328
168	0x3ce2fe73	0.027709221
169	0xbd46e8c0	-0.04856181
170	0x3d70e5c8	0.058812886
171	0xbd3658e8	-0.04451838
172	0xbb36bd07	-0.0027883665
173	0xbd803d15	-0.062616505
174	0xbce8acfe	-0.028402802
175	0x3b903f9d	0.0044021145
176	0x3d59f10b	0.053208392
177	0xbd0759b5	-0.033044536
178	0xbd5baef0	-0.05363363
179	0x3d31771a	0.043326475
180	0xbc55fa4b	-0.013060163
181	0x3d581a46	0.05275943
182	0x3c5e342f	0.013562246
183	0xbcec6724	-0.028857775
184	0xbb344625	-0.002750763
185	0xbd7daef0	-0.06193441
186	0xbc71dcdb	-0.014762129
187	0xbbb98de4	-0.0056626666
188	0xbd01f055	-0.03172334
189	0xbc9a8e08	-0.018866554
190	0x3cd01448	0.025400296
191	0x3caf10f8	0.021370396
192	0x378aae51	1.6532054e-05
193	0x3d56fcc9	0.05248717
194	0xbc18feb8	-0.009338073
195	0xbbae0555	-0.005310694
196	0xbbce6247	-0.0062983367
197	0x3d7a6f58	0.061141342
198	0xbc42b5d0	-0.011884168
199	0x3d1004a0	0.03516066
200	0x3bc0b254	0.0058806334
201	0x3d6a61f7	0.057222333
202	0x3c1537c9	0.0091075385
203	0x3c85e4fe	0.016344544
204	0xbbc7962c	-0.0060909
205	0xbd8bd3ca	-0.06827505
206	0xbd32a76c	-0.043616697
207	0x3d3ed580	0.04659033
208	0xbc7b8528	-0.015351571
209	0xbcbd6a8a	-0.02312209
210	0x3d363d5c	0.04449211
211	0xbd5c904f	-0.05384856
212	0xbd1a8c83	-0.03773166
213	0xbc56b70b	-0.013105164
214	0x3d1dbfa9	0.03851286
215	0xbcdb7242	-0.02678788
216	0xbc2accd6	-0.010424813
217	0xbd1e561b	-0.038656335
218	0x3da9983e	0.08280991
219	0xbceed15a	-0.029152561
220	0x3d8221a4	0.06354073
221	0x3d1417c3	0.036155473
222	0xbd176015	-0.036956865
223	0xbcc84837	-0.024448497
224	0xbd900312	-0.070318356
225	0x3d4a3ff7	0.049377408
226	0x3d4ba1cb	0.049714845
227	0x3c7d4f85	0.015460853
228	0xbc4fa6fd	-0.01267409
229	0x3d6d0f1a	0.05787573
230	0x3ca70729	0.020389156
231	0xbd2689eb	-0.040658873
232	0x3dc22f14	0.09481636
233	0xbc4ca251	-0.012489871
234	0xbd510cbc	-0.051037535
235	0x3d0c3a83	0.03423549
236	0x3cf16935	0.029469112
237	0xbd866a32	-0.06563224
238	0x3d60565d	0.054769862
239	0x3b93a0b4	0.0045052413
240	0xbd7aba3f	-0.061212774
241	0xbd2b70a3	-0.041855466
242	0xbaeaf454	-0.0017925599
243	0x3b42b2da	0.0029708655
244	0xba31bda5	-0.00067802734
245	0x3c6aee30	0.014339015
246	0x3cdfee08	0.027335182
247	0xbbe55211	-0.0069983085
248	0x3d7aec17	0.06126031
249	0xbd251609	-0.040304217
250	0x3d302c85	0.043011207
251	0x3d0c34fb	0.034230214
252	0xbd25ac76	-0.040447675
253	0x3d6df9eb	0.05809967
254	0xbc691981	-0.014227272
255	0x3d7a2c2e	0.06107729

model.12.bias f4 [84]
0	0x3c3bc8e9	0.011461475
1	0xbbb1e4a8	-0.0054288693
2	0x3cd9902b	0.026558002
3	0x3c83f61e	0.016108569
4	0x3ce5d511	0.0280557
5	0x3c46e447	0.0121393865
6	0x3c802261	0.015641393
7	0xbbeba3e2	-0.007191167
8	0xbad640ea	-0.001634625
9	0x3cee0e8e	0.029059675
10	0x3c945d91	0.018111022
11	0xbd80f2c3	-0.06296303
12	0x3c67e347	0.014153308
13	0x3ce0af51	0.027427347
14	0x3c70116f	0.014652594
15	0xbcb60fcd	-0.022224331
16	0x3c7ee629	0.015557804
17	0x3cddf7ae	0.027095642
18	0x3d23f86e	0.040031843
19	0x3cd64bdf	0.026159225
20	0x3ca25cd9	0.019819664
21	0xbd44cbac	-0.0480458
22	0x3d18e584	0.03732826
23	0x3cfc0cef	0.030767886
24	0x3d14b922	0.03630937
25	0xbcbede80	-0.023299456
26	0xbc2cf73d	-0.010556993
27	0x3d12fdae	0.03588646
28	0x3c79670c	0.015222322
29	0xbcb946ae	-0.02261671
30	0xbc8de233	-0.017319774
31	0x3b1c1286	0.0023814752
32	0x3c63b7a2	0.013898762
33	0x3cd948de	0.026524004
34	0xbd0214cc	-0.031758115
35	0x3b6a49fa	0.003574966
36	0xbd09f6a9	-0.0336825
37	0xbc9fe6c7	-0.019519223
38	0x3ce47b2e	0.027890768
39	0x3be65f4d	0.0070304037
40	0x3c5d57f8	0.013509743
41	0xbcf1e79e	-0.029529389
42	0x3cadedde	0.021231588
43	0xbd560b73	-0.052257013
44	0x3cf9b777	0.03048299
45	0xb965ed1b	-0.0002192747
46	0xbd3632b0	-0.044481933
47	0x3cfc5f6b	0.030807218
48	0xbcd0944a	-0.025461335
49	0xbbc00b03	-0.0058606877
50	0xbd3c1a71	-0.045923654
51	0xbb9ab9d7	-0.004721861
52	0xbcae3c3d	-0.021268958
53	0xbb824bdf	-0.0039763297
54	0xbd39941f	-0.045307275
55	0xbd89d3f1	-0.06729878
56	0x3cd4ec24	0.025991507
57	0xbd8bcc81	-0.068261154
58	0x3c1a6d23	0.009425434
59	0xbcb376b3	-0.021907186
60	0x3c65f4c1	0.014035405
61	0xbae4aed6	-0.0017447125
62	0x3cc2a7fb	0.02376174
63	0x3c030d7f	0.007998823
64	0xbc18143a	-0.009282166
65	0xbc9ffe59	-0.019530462
66	0xbced7bd9	-0.02898972
67	0x3d2081ab	0.03918616
68	0x3c19a7d3	0.009378391
69	0x3d1631fe	0.03666877
70	0xbc3b2abf	-0.011423766
71	0xbd8c1892	-0.06840624
72	0x3c409940	0.011755288
73	0x3cd086cb	0.0254549
74	0xbc728c62	-0.014803978
75	0xbd644016	-0.05572518
76	0x3ae4a978	0.0017445525
77	0x3c600126	0.013672149
78	0xbbb319a4	-0.005465703
79	0xbd38a3b7	-0.045078006
80	0xbadd0351	-0.001686195
81	0x3cdf731c	0.027276568
82	0xbc372298	-0.011177681
83	0x3c6342de	0.013870923

model.15.weight f4 [12, 84]
0	0x3ad38569	0.0016137782
1	0x3c97ca31	0.01852903
2	0x3c842430	0.016130537
3	0xbca18133	-0.019714927
4	0x3cb7c157	0.022431059
5	0x3d957675	0.072979845
6	0xbd2fbe76	-0.042906247
7	0x3cd0bf90	0.02548197
8	0xbd045cec	-0.03231518
9	0xbcefdfd7	-0.02928154
10	0xbd49da22	-0.049280293
11	0xbc99adcd	-0.018759632
12	0xbb782aca	-0.00378673
13	0xbc1ff7ad	-0.00976364
14	0xbcc12305	-0.023576269
15	0x3c039919	0.008032107
16	0xbd04a4cb	-0.03238372
17	0xbd25f4c4	-0.04051663
18	0xbce1665f	-0.027514635
19	0xbd1ea504	-0.03873159
20	0x3daad492	0.08341326
21	0x3cf8c3cc	0.0303668
22	0x3d4d203a	0.05007956
23	0xbc7da4fe	-0.015481232
24	0xbd206360	-0.03915727
25	0x3d74e221	0.059785966
26	0xbc70e2fd	-0.014702556
27	0xbd6abe6c	-0.057310507
28	0x3b9284cb	0.0044713966
29	0xbd2ce378	-0.04220912
30	0xbce8ec85	-0.028433094
31	0xbcd58a37	-0.026066883
32	0x3cde767a	0.027156103
33	0xbc95d2ee	-0.018289056
34	0xbc879b4c	-0.016553544
35	0xbd08262c	-0.03323953
36	0x3cd3b90b	0.025845071
37	0xbd2cc70a	-0.042182006
38	0xbbd874c9	-0.0066057188
39	0x3a0f0214	0.0005455327
40	0xbd69328c	-0.05693297
41	0xbc809a09	-0.01569845
42	0x3d579129	0.05262867
43	0x3c3fde2a	0.011710683
44	0xbccc4d4d	-0.024939204
45	0x3d2c2dbd	0.042035807
46	0x3d92a57f	0.07160472
47	0xbd19c974	-0.037545636
48	0xbce62d30	-0.028097719
49	0xbc5495b9	-0.01297515
50	0x3cfd7157	0.030937834
51	0x3cb18396	0.02166919
52	0x3bdbda7d	0.0067093954
53	0x3d522d9c	0.051313028
54	0x3d73626b	0.05942003
55	0x3c9038c7	0.017605199
56	0xbd4d59ac	-0.050134346
57	0x3d7b9f0f	0.061430987
58	0x3d183512	0.037159987
59	0x397ef28f	0.00024313688
60	0xbd2a6733	-0.041602325
61	0xbd81dc52	-0.06340851
62	0xbd0dc5ed	-0.034612585
63	0x3d77b095	0.060471136
64	0xbba0227f	-0.0048869248
65	0x3d7c6c09	0.061626468
66	0x3cab588e	0.02091625
67	0x3ca946f2	0.020663712
68	0xbc8e8a5f	-0.017399965
69	0x3c75d8ba	0.015005285
70	0xbd828977	-0.063738756
71	0xbcf6bc51	-0.030119093
72	0xbcde915c	-0.027168922
73	0xbcfc5b19	-0.030805157
74	0x3bbb3f99	0.0057143685
75	0x3d848652	0.06470932
76	0x3d4b984f	0.0497058
77	0xbd4c9b38	-0.049952716
78	0x3d247e7d	0.04015969
79	0xbd64b1f1	-0.05583376
80	0xbbb5462e	-0.0055320477
81	0x3d9e7fe4	0.07739237
82	0xbd8695c3	-0.065715335
83	0xbd54f15c	-0.05198799
84	0xbc4d50e4	-0.012531493
85	0xbc06ccd0	-0.008227542
86	0xbbb48cd4	-0.005509952
87	0xbcba5c00	-0.022748947
88	0xbc225903	-0.009908917
89	0xbad50ac6	-0.0016253821
90	0xbd2c350d	-0.04204278
91	0xbd28e466	-0.041233443
92	0xbd341321	-0.043963555
93	0x3d452f23	0.048140656
94	0x3bfb3141	0.0076657836
95	0xbd17fd56	-0.037106834
96	0x3ccd151c	0.02503448
97	0x3cd194af	0.025583593
98	0x3d393c4e	0.045223527
99	0xbcf19a3a	-0.029492486
100	0x3ba0e190	0.0049097016
101	0xbd5db7ea	-0.054130472
102	0xbcafe95f	-0.021473585
103	0xbc92ef51	-0.01793638
104	0x3d575c91	0.052578513
105	0xbd87b285	-0.06625847
106	0x3d022be3	0.031780135
107	0xbccdf5a8	-0.025141552
108	0x3d51600a	0.05111698
109	0x3cd10843	0.025516635
110	0x3cef4081	0.029205563
111	0xbbd5f774	-0.006529743
112	0x3c5c5b23	0.013449463
113	0xbd2df5ef	-0.04247087
114	0x3d31073e	0.043219797
115	0xbcd1b46a	-0.025598723
116	0x3d963d7a	0.073359445
117	0xbbf2f135	-0.007414008
118	0xbd0ae168	-0.03390637
119	0xbd405da4	-0.046964303
120	0x3d76178c	0.06008105
121	0xbca5e2e7	-0.020249797
122	0xbd2b9e0c	-0.041898772
123	0x3d95cc0a	0.07314308
124	0xbd97f162	-0.07419087
125	0xbca7b70a	-0.020473022
126	0x3cd962f0	0.026536435
127	0xbb6b7ef8	-0.0035933834
128	0xbd0a2c6e	-0.033733778
129	0xbd224a79	-0.039621804
130	0xbd30d77f	-0.043174263
131	0x3d4a0120	0.04931748
132	0x3c683fc2	0.014175357
133	0xbd7caed3	-0.061690163
134	0x3cac955e	0.021067318
135	0xbc5882c0	-0.013214767
136	0x3caebfb4	0.021331646
137	0xbc952b8b	-0.01820924
138	0x3d49ee6a	0.049299635
139	0x3d00b1fb	0.031419735
140	0x3c2607c1	0.010133685
141	0x3b2c43a1	0.0026285427
142	0x3d59e187	0.053193595
143	0xbce4c090	-0.027923852
144	0xbcea9379	-0.028634774
145	0x3bcd7b8e	0.0062708324
146	0xbd1b2328	-0.037875324
147	0x3d0d8659	0.034551952
148	0xbd809e8a	-0.06280239
149	0xbd357a68	-0.04430619
150	0x3d788624	0.0606748
151	0x3d37d474	0.044880345
152	0xbc50a2e3	-0.012734148
153	0xbcd5f77a	-0.026118983
154	0xbd313ba9	-0.043269787
155	0x3c8b53a2	0.017007653
156	0xbd2ca13e	-0.04214596
157	0x3cee8dbc	0.029120319
158	0x3d3e08c3	0.046395075
159	0xbd7708a3	-0.06031097
160	0x3c3b25cd	0.011422587
161	0x3d752116	0.059846006
162	0xbd8634fc	-0.06553075
163	0x3bdeda68	0.0068009384
164	0xbcf63826	-0.03005607
165	0x3d8b7074	0.06808558
166	0xbcec995d	-0.028881723
167	0xbb1b0966	-0.0023656725
168	0xbd4feea0	-0.05076468
169	0xbd41119f	-0.047135945
170	0x3da3e274	0.08002177
171	0x3dce1e36	0.10064356
172	0x3a3a90ba	0.0007116903
173	0x3bfd8176	0.00773638
174	0xbd663c06	-0.056209587
175	0xbc1daeb5	-0.009624173
176	0xbd4fdce0	-0.050747752
177	0x3d01b17d	0.031663407
178	0xbc0ae427	-0.008477247
179	0xbd6c0b17	-0.057627764
180	0xbd60e2f5	-0.054903943
181	0xbd3f533f	-0.04671025
182	0xbceebfb2	-0.029144142
183	0x3df4fa44	0.11961797
184	0xbca38d91	-0.019964965
185	0x3c76735b	0.015042151
186	0x3d8c3b8f	0.068472974
187	0xbd40cc72	-0.047069974
188	0x3c0c9378	0.008580081
189	0xbd86c20d	-0.06579981
190	0xbd803aa6	-0.06261186
191	0x3d254008	0.040344268
192	0xbd69e329	-0.057101402
193	0x3c771923	0.015081677
194	0x3d984a95	0.074361004
195	0x3dc39953	0.09550729
196	0xbd1f7882	-0.038933285
197	0xbc8fe60c	-0.01756575
198	0xbd362d59	-0.04447684
199	0x3bfb4d46	0.007669124
200	0x3d18bc4b	0.037288945
201	0xbcac4c60	-0.021032512
202	0x3bfe7437	0.0077653187
203	0xbce8f880	-0.028438807
204	0xbd449d1b	-0.04800139
205	0xbcb6ff55	-0.022338549
206	0x3cd61b0f	0.02613595
207	0x3d4eb3f5	0.05046459
208	0x3d9b5e34	0.07586327
209	0x3d6d7bed	0.057979513
210	0xbd66368c	-0.056204364
211	0xbd737804	-0.059440628
212	0xbbab13c0	-0.0052208602
213	0xbcf7476e	-0.030185428
214	0x3cfb608d	0.030685687
215	0xbbda7d26	-0.006667751
216	0xbd463298	-0.048388094
217	0xbc6f3b7c	-0.0146015845
218	0xbd7e61f9	-0.062105153
219	0xbd37e894	-0.04489954
220	0x3d16b97a	0.036797978
221	0x3d4532fd	0.04814433
222	0xbd937a06	-0.072010085
223	0x3c88b409	0.01668741
224	0x3d7c6417	0.06161889
225	0x3c55a7aa	0.0130404625
226	0xbcd9e42f	-0.026598064
227	0xbdaa1b6c	-0.083060116
228	0x3c85a11f	0.01631218
229	0x3caf5a54	0.021405376
230	0x3d1e3679	0.038626168
231	0x3d4f27a0	0.0505749
232	0xbbe6dc1d	-0.0070452825
233	0xbd26efe8	-0.040756136
234	0xbbc85cf4	-0.0061145965
235	0x3d6e1f6c	0.058135435
236	0x3b59a3c7	0.0033209191
237	0xbcfac73b	-0.030612579
238	0x3c886a5a	0.016652275
239	0x3d9570f3	0.07296934
240	0x3dc81b41	0.09770823
241	0x3cf026db	0.029315403
242	0x3ce67e58	0.028136417
243	0x3c832db0	0.016012996
244	0x3d09d90a	0.03365425
245	0xbd6f6113	-0.058442187
246	0x3c603671	0.013684855
247	0xbd87a70f	-0.06623661
248	0xbd12a61d	-0.03580295
249	0xbd738c27	-0.05945983
250	0xbcdf6a02	-0.027272228
251	0xbd3d42d6	-0.046206318
252	0xbd59dc55	-0.05318864
253	0x3ce4db33	0.027936554
254	0x3cc16fc4	0.023612864
255	0x3d724eba	0.05915711

model.15.bias f4 [12]
0	0x3dcf8f60	0.101347685
1	0x3dacded1	0.08440936
2	0x3d907b6a	0.07054789
3	0x3dc016e5	0.09379367
4	0x3d868dda	0.06570025
5	0x3d927244	0.07150701
6	0x3dbaf7d8	0.09129304
7	0x3db13440	0.08652544
8	0x3da337c6	0.07969622
9	0x3d84e4b0	0.06488931
10	0x3da5068e	0.08057891
11	0x3d969190	0.073519826
